ddi_model.pt (torch, 28952 bytes, 7 tensors)

conv1.bias f4 [64]
00000000: f40e 3bbe 34a9 6bbe 0000 0000 0000 0000
00000010: 2d37 3dbe 0dd7 69be 4c10 27be 0774 953e
00000020: 0000 0000 0000 0000 0000 0000 0000 0000
00000030: 734b 2dbe 0000 0000 0000 0000 0000 0000
00000040: 0000 0000 6872 52be 59d5 a3bd 55fc d7bd
00000050: 0000 0000 0000 0000 0ed5 8f3e 5cb1 85be
00000060: 0000 0000 0000 0000 0000 0000 0000 0000
00000070: d655 88be 6b9a b2bd 21ea eabd a872 cdbd
00000080: b3a8 55be 0000 0000 44c7 9d3c 0000 0000
00000090: 588c 013e 0000 0000 0000 0000 0000 0000
000000a0: 7420 9ebd e66e 5dbe f46a 863d cbac 73bd
000000b0: 7fe7 7dbd 0000 0000 fe27 45be 0000 0000
000000c0: 0000 0000 0000 0000 1eb3 0cbe 1163 7fbe
000000d0: 5f63 87bd 0000 0000 b94b acbd 094a 7f3d
000000e0: 0000 0000 ab5a 01bd 0000 0000 492f 1ebe
000000f0: 0000 0000 0000 0000 e198 99bd 0000 0000
-0.18267423 -0.23013765 0.0 0.0 -0.18478079 -0.22835942 -0.1631481 0.29190084
0.0 0.0 0.0 0.0 -0.16923313 0.0 0.0 0.0
0.0 -0.20551455 -0.07999677 -0.105461754 0.0 0.0 0.28092235 -0.26111877
0.0 0.0 0.0 0.0 -0.26627988 -0.08720859 -0.11470438 -0.100316346
-0.20865135 0.0 0.019260056 0.0 0.12651193 0.0 0.0 0.0
-0.07721034 -0.21624336 0.065633684 -0.05949096 -0.06198835 0.0 -0.19253537 0.0
0.0 0.0 -0.13740203 -0.24940135 -0.066107504 0.0 -0.084128805 0.062326465
0.0 -0.03158061 0.0 -0.15447725 0.0 0.0 -0.074998625 0.0

conv1.lin.weight f4 [64, 1]
00000000: e25c 723e aae9 ac3d 441c 49be f163 4dbe
00000010: 5d54 ff3c 3d80 263d 7ea3 ed3d a670 6b3e
00000020: 9c64 3fbe 329b 0abd 3f79 09be e87a 97be
00000030: 8707 0d3e 7d5b 5abe dc8b 22be 92e4 5fbe
00000040: 2d88 28be f8d1 2f3d bb06 9ebc 2772 fb3d
00000050: c7ff 8dbe b6bb 01be 55bb 583e 96cf 303d
00000060: 9625 86bc 5222 9bbe 0001 3dbe 17f3 9abe
00000070: 284d 683e 1c56 96bb f427 4f3e 2640 a03c
00000080: 58b1 433e c11c 47bd 4aef 833e 13d3 89be
00000090: 69f0 973d e39b 81be dc01 72bd d3a5 b0bc
000000a0: 58f5 1a3d 2025 523e acb7 35bd b7c8 30bd
000000b0: 0aa5 353c 9bbb 8abe 1594 743d f6f9 66be
000000c0: a6af 3dbd 8f81 40be da0f 4a3e 3c32 233e
000000d0: 21e7 393e 91aa 7dbc a159 d33d c31f 4a3c
000000e0: dd00 83be 7c01 993d 47ef babb 56b0 393e
000000f0: 6675 f3bb 663e 33bd 01c4 f9bc d7e0 37be
0.23668244 0.084430054 -0.19639689 -0.20057656 0.031168157 0.04064964 0.11603449 0.2299219
-0.18690723 -0.033839412 -0.13425158 -0.29585958 0.13772403 -0.21323963 -0.15873665 -0.21864536
-0.16458197 0.04292485 -0.019290319 0.12277632 -0.27734205 -0.12669262 0.21165211 0.04316672
-0.016375344 -0.30299622 -0.18457413 -0.30263588 0.22685683 -0.0045879018 0.20230085 0.019561838
0.1911062 -0.048611406 0.257685 -0.2691885 0.074189015 -0.25314245 -0.059083804 -0.021563446
0.037831634 0.20521975 -0.044364616 -0.043160167 0.011086712 -0.27096257 0.059711535 -0.2255629
-0.04631009 -0.18799423 0.1973261 0.15937132 0.18154575 -0.015482561 0.1031983 0.012336674
-0.25586596 0.07470986 -0.0057047936 0.18133673 -0.0074297665 -0.04376068 -0.03048897 -0.17956863

conv2.bias f4 [64]
00000000: 9b7e 55be 5220 373d 463e 11be 780c 4dbd
00000010: fe50 7fbd bb36 083e ee10 153d 3a62 113e
00000020: 4ced 993b e7ed 5fbd 1383 3e3e c35a 12bc
00000030: bcc5 853e e0f9 c13d d160 0abe fb2d 30be
00000040: d773 3dbe ef7b 913e b3f9 223d b07b 793e
00000050: f174 9bbe 8afc 123d 0617 2bbe fc41 383e
00000060: 9089 613e b659 17be e897 853e 6330 55be
00000070: 8948 293e aa19 09be 5843 2abe 3d0f eabd
00000080: da5c d23d 53af 39be 5c21 10be 8786 4ebe
00000090: 8714 f73d 8750 2f3e 2a26 293e 2e3b c8bd
000000a0: f355 4dbe 7bcc 75be 576e 20bd 47aa 793e
000000b0: d55d 6d3e 093f 583e 3db8 91bd 25b4 a8bd
000000c0: 67d9 043e e459 24be e8fe 9a3d 54ef 933e
000000d0: e3dc 113c cd01 603e eaa4 dd3d 4b30 56be
000000e0: 6f49 aebd e85d 03bd 7b14 dd3d 7a48 72be
000000f0: 4e1b 263e 6b10 0cbe 2e55 543e 2aa2 8bbd
-0.20849077 0.044708557 -0.14183912 -0.05006072 -0.0623331 0.13302128 0.0363931 0.14197627
0.0046974774 -0.05467024 0.18604688 -0.008932772 0.26127422 0.09471488 -0.13513495 -0.1720504
-0.1850122 0.28414866 0.039788913 0.2436359 -0.30362657 0.03588537 -0.16708001 0.17993921
0.22025132 -0.14780316 0.26092458 -0.2081924 0.16531576 -0.13388696 -0.16627252 -0.11428688
0.10271616 -0.18133287 -0.14075226 -0.20168506 0.12064462 0.17120562 0.16518465 -0.09776913
-0.20052318 -0.24003784 -0.03916773 0.24381362 0.23180325 0.21117796 -0.07115219 -0.08237485
0.12973557 -0.16049916 0.07568151 0.2889353 0.008902761 0.21875687 0.108224705 -0.2091686
-0.085101 -0.032071978 0.10794922 -0.2366046 0.16221353 -0.13678138 0.20735618 -0.0681804

conv2.lin.weight f4 [64, 64]
00000000: 63af 803d c054 62be ef26 1d3e 96e2 f3bb
00000010: 245c 0a3d e3ef 343d e339 13bd 99fb dd3d
00000020: d737 15bd 273d 3a3e c8f7 4cbe 7ee6 f5bd
00000030: 1d47 6cbd 25e2 2d3e 5650 47be dc7a 17be
00000040: c3dc 073e 50e1 123e 4d43 3abd a5c2 08be
00000050: de9d 2a3e 90f0 ad3d ef7d 87be 7fda 38bd
00000060: f61c 293d b36b 8cbd fe5a 303e 501a 15be
00000070: a510 d53d df6b 003e 58d6 f03d 059d 49be
00000080: 5f38 c4bd 4224 e8bd 740d 0c3c aa70 26bd
00000090: e92b 073e 94b2 b33d 009a f03c 16d5 943d
000000a0: d899 0d3e d06d 83be 5702 ec3d 6745 3bbe
000000b0: 028f ffbd ab24 ee3d 6863 e9bc f12a 6fbd
000000c0: ee66 213e eae2 4c3e 193d 86be bb9a 8f3c
000000d0: e8af 123e 7b5c 05be fe2d 21be 9c07 53be
000000e0: 12a3 6c3d 15cb 873d 8628 01be 225f 91bb
000000f0: 4608 8abd 2d73 08be 46c8 bbbd 065c 3cbd
00000100: 89cf 903c 3ed0 8bbd 7966 5cbd 978a 233c
00000110: 0c28 723e 52fb 0fbe 54e9 fd3d 8ab8 efbd
00000120: fa70 91bd 5496 31bd 7b0a 2f3e 1bd4 81bc
00000130: bb04 0fbe c4ec 373e 95af 783d 6eed e2bd
00000140: 9c77 2e3d 4b43 0c3c 45be 133e d188 403e
00000150: 5451 67bd 1945 97bd 3142 183e 8024 ae3d
00000160: f729 283e 71bd 05be 12eb 43be d360 0a3d
00000170: afb5 753e 3f57 91bc 33c6 67bd e805 79bd
00000180: 9d67 cd3c d5c2 f7ba 89cc 2fbe efa4 d6bc
00000190: 70f1 27be 8904 aebd 946a 433e 1aa9 f33d
000001a0: bf11 0a3d 5ab2 d3bd 2f0b 413e 6da4 273e
000001b0: fa39 ee3d d6b7 8bbd 831e 173e 455b e9bd
000001c0: 21cc 173e 9e10 4d3d 7e4d 263e da49 da3b
000001d0: 5eee 813d a007 edbd c8e6 0abe 33e3 163d
000001e0: 55df 2bbe ffe4 39be 58a3 bbbd beed 113d
000001f0: 13e5 0abe 0e5b 373e 15e6 5f3e 0a0f 593e
00000200: b519 c83d 4f56 dbbd b2f0 34be 15b8 d13d
00000210: 9633 053e f9e6 e5bd 87da 213e a028 6f3d
00000220: ea11 9ebd 215a bfbc e8c1 fbbd 274c de3d
00000230: 41b6 5cbe c53b 5fbd fd3b b33d b2f5 44be
00000240: 52d5 033e 4564 c6bd a4bf 48bc 1f0d 57be
00000250: 705a 95bd 2148 353e 5f1e 4bbe cab8 b3bb
00000260: 539b 983c 259a 3ebd c10a 24be 688d b0bd
00000270: e668 1b3e 721e 0f3e b569 36be e5b1 f93d
00000280: b503 353c c8f7 8a3d b911 b33d d22c 0fbd
00000290: 49d8 4bbe f169 cd3d 2214 c73d 9c2e edbc
000002a0: 3de0 f5bc 4e23 52be 0b8a 2a3d 6a2d 78be
000002b0: 8cea 9b3d bcc9 39bd d719 543d fdb2 b13d
000002c0: 11ab 7bbd 3e9b 383e 3f51 05be 99a6 58bd
000002d0: 5cae 4a3e 2029 2abe 20ea 55be 4a43 0d3e
000002e0: 3aa7 33bd 8636 4dbe b890 a83d f6f1 883d
000002f0: dac4 53be 8779 543e cefd ae3c 8b7f e5bd
00000300: a5ee 4cbd c3e5 cc3d 4589 00be f796 a23c
00000310: 1cb4 a3bd 445d 55be d2e5 a6bd 7f50 2d3e
00000320: 34b6 39be 4fda 5fbd 889f 27be c61a 223d
00000330: c952 9abd 5824 8e3d 4142 c0bd 1ef6 58be
00000340: b22d 353d d4bb aabd 835e dbbd 815e 2cbe
00000350: 8334 4cbd bd26 203e 7d7d f5bd d685 aa3d
00000360: cd06 e03d da70 173e 8308 073d ac4f 2dbd
00000370: f223 29be a88d e33d e587 13be 7a96 57be
00000380: 7220 233e 7f77 0ebd 8011 77be ef1a 383e
00000390: 8cff ea3d e832 52be 0946 f8bc 07e6 cd3d
000003a0: 355d 113c ea80 76be 3b9f 0f3e 8531 23be
000003b0: 0195 1fbe 7509 9e3b a41b 31bc 9353 5abe
000003c0: fc18 7abd bc23 733c 183f 033e 38d6 0fbe
000003d0: 532b 6a3d 8d73 0d3d 1e8a c43d 8218 1f3d
000003e0: f7a8 88bd d5b5 c8bd 7c52 06be 412b 613d
000003f0: f636 2dbd ef18 223e 5099 233e c75b 15bc
0.06283452 -0.22102642 0.15346883 -0.0074427826 0.03377928 0.044174086 -0.035943877 0.10839004
-0.036430206 0.1818739 -0.20016396 -0.120068535 -0.057685006 0.16980799 -0.1946424 -0.14792961
0.13267808 0.14343762 -0.04547434 -0.13355501 0.16661784 0.08493149 -0.26463267 -0.04513025
0.041287385 -0.068564795 0.17222211 -0.14560819 0.10403565 0.1254115 0.11759633 -0.19688804
-0.095810644 -0.11335041 0.008548129 -0.04063479 0.13200344 0.087742954 0.029370308 0.072672054
0.13828218 -0.25669718 0.11523884 -0.18288194 -0.124784485 0.116280876 -0.028489783 -0.05839056
0.15761921 0.20008436 -0.2621849 0.017529836 0.14324915 -0.1302356 -0.15740201 -0.20608371
0.057772703 0.06630532 -0.12613115 -0.0044363895 -0.06739859 -0.13325186 -0.091690585 -0.045986198
0.017677085 -0.068268284 -0.053808663 0.009981773 0.23648089 -0.14060715 0.123980194 -0.1170512
-0.07101627 -0.043356255 0.17093842 -0.01584821 -0.13966648 0.17961413 0.060714323 -0.11080442
0.042594537 0.008560966 0.14428051 0.18802191 -0.056474045 -0.07386226 0.14869 0.085030556
0.16422258 -0.13060547 -0.19132641 0.033783745 0.23995088 -0.017741797 -0.056585502 -0.06079665
0.02507382 -0.0018902669 -0.17167868 -0.026201693 -0.16400695 -0.08496959 0.19083625 0.11897488
0.03370833 -0.10336752 0.18851922 0.16371317 0.11632152 -0.06822173 0.14757733 -0.113943614
0.14823963 0.050064676 0.16240498 0.006661636 0.06344293 -0.1157372 -0.13564599 0.036837768
-0.16784413 -0.18153761 -0.09162015 0.03562712 -0.13563947 0.17905828 0.21865113 0.21197143
0.09770528 -0.107098214 -0.17669943 0.10240189 0.1300796 -0.11225695 0.15806018 0.058388352
-0.077182606 -0.023358406 -0.12292844 0.10854369 -0.215539 -0.05450036 0.08751676 -0.1923435
0.12874344 -0.09687094 -0.012252722 -0.21001099 -0.0729264 0.17703296 -0.19835804 -0.005484675
0.018628752 -0.046533722 -0.16019727 -0.08620721 0.15176734 0.13976458 -0.17813762 0.12192134
0.011048247 0.06785542 0.08743615 -0.034954853 -0.19906725 0.10029972 0.09720637 -0.02895289
-0.030014152 -0.2052128 0.041635554 -0.24236074 0.07613096 -0.045358405 0.051782455 0.086767174
-0.06144244 0.1802797 -0.13019274 -0.052893255 0.19793075 -0.1661725 -0.20890093 0.137952
-0.04386065 -0.2004033 0.08230728 0.066867754 -0.20680562 0.20749484 0.021361258 -0.112059675
-0.050032277 0.10004761 -0.12552364 0.019847376 -0.079933375 -0.2083636 -0.081493035 0.16925238
-0.18135911 -0.054651555 -0.1636945 0.039576314 -0.07535321 0.06940526 -0.09387637 -0.21187636
0.04423303 -0.083366066 -0.10711386 -0.16832925 -0.049854767 0.15639777 -0.119868256 0.083263084
0.10938797 0.14789143 0.0329671 -0.04231231 -0.16517618 0.11111003 -0.14407308 -0.21053496
0.15930346 -0.03478193 -0.2412777 0.17979024 0.11474523 -0.20527232 -0.030306833 0.1005364
0.00887232 -0.24072614 0.14025585 -0.15936859 -0.15584184 0.0048229047 -0.010809813 -0.21320944
-0.061058983 0.014840063 0.12817037 -0.14046562 0.057170223 0.034534026 0.09596656 0.03884173
-0.066728525 -0.09800307 -0.13117403 0.05497289 -0.042288743 0.15829824 0.15976453 -0.00911612

classifier.0.weight f4 [32, 64]
00000000: 7655 85bd afb3 90bd d87c 8f3d 0dc5 42be
00000010: 846e 1fbd bbb1 83bd d04c a0bd 7fa6 8c3d
00000020: c608 233d 2cfa 31bd c68d 2d3e 19df eebd
00000030: 5ef0 2b3d fca7 8bbd ca6f 2cbd 71a6 f4bd
00000040: 96a4 333c b4a7 ea3c b017 c83d 1d0a 243e
00000050: 6583 50bd b48a 9b3c f7c0 21be 982d 273e
00000060: 5644 1c3e 298e 43be b1c9 2c3e 929a 73bd
00000070: 369b cb3d f46c df3d e09b 51be 6a6c 18be
00000080: 7d8c b43d 52db babc a78a 1abe 2af1 c2bc
00000090: 2f00 7d3d 65a4 1a3d aa39 5e3e 149e b3bc
000000a0: e042 2fbd ebcb 0fbe c7b3 22bc 969b d83d
000000b0: 97a2 7f3d a11f 5b3e 15b0 c6bb 37e5 b1bd
000000c0: a566 0f3d 00af 293d 0114 993b 6bab b93c
000000d0: 7ce3 063b ae83 9e3d fadc 063e 43bc e8bc
000000e0: f8e7 c0bc 34cc 05be e212 b3bd 644d 79be
000000f0: 1192 9e3d 1ae7 9cbd 77f3 b8bc d7d7 443d
00000100: 4b59 6e3c 032d 00bc 6f24 a73d fcc5 67bc
00000110: 736a eb3d 41fa e4bd cdd7 1dbd 3f7e 993c
00000120: 034b fb3c 791d 8dbd 0792 e73d 7185 e7bd
00000130: 3fe8 21bd 1b20 0c3e 8991 ebbc 9f71 eabd
00000140: 342c a63d 7ed7 27be 5bd2 eabc 2417 a3bd
00000150: 703a b23d f311 483d edcf fe3c d098 b3bd
00000160: cf26 753d 9cd4 133d fffd 07bc f6d2 c63d
00000170: 0eff 5bbe 4873 de3d e896 923d 2a39 d53d
00000180: 90f6 8ebd b602 9a3d 978f 04bc 5f53 d03c
00000190: 84bb d63c c4db f73d 34d5 0abd ab88 e1bd
000001a0: f05a 1d3c c7cf e8bd 4c17 5dbd 1ba9 27be
000001b0: 13d5 8fbd e87d 51bd 4488 b43c 7b86 5cbd
000001c0: 6e7a a5bd 7a39 e539 cb00 98bd b5a8 07be
000001d0: 9aa1 933b 03dc 12be ee1f 073e 0afd 22bd
000001e0: 020b 733d bb38 51bd 08e6 2ebe cbff eebd
000001f0: 1601 ffbc 500f 4c3e 635f f6bd dcfc 8d3d
00000200: efd9 0fbe dd0f 2fbe 3e70 dc3c 0cc7 37bc
00000210: f2ba 96bd 6878 9a3d 14fe 113e d292 7b3d
00000220: 58aa 843d ec37 003e dd5b e0bc bdb6 2dbd
00000230: b7df bb3d d6c9 113d 9868 b63c 62ba 3cbd
00000240: c94c babd 6459 793e 323e 463d cb1e 1b3e
00000250: e9f3 25be 70cb 373c 86e2 69be 2fc8 963d
00000260: d13f bdbb 6623 5fbe 94ee 653d 4d41 3ebe
00000270: 0ee4 143e d16a 8fbc ec8c 8abc a3ea eebc
00000280: 48c8 c6ba 84f0 313d 3067 a5bc 9d48 39be
00000290: 145f 0b3e 55cb ad3d 4767 133e 50a2 8bbd
000002a0: 75ea 60be fa14 9f3d 41b2 a63d db5e 163e
000002b0: e5c9 863c 66ec 383d bcc6 863d f0b8 0dbb
000002c0: cd84 24bd 4bbf 8fbc a9fb 5b3d dabe 623e
000002d0: 22a4 c73d 404c 693d c8ae 8f3c 492d 21be
000002e0: 5f58 58bd 3b69 1a3d df7b f6bc 9109 79be
000002f0: 09f6 d23d 81fc ab3c 8759 a63d ff61 ea3d
00000300: 9c59 e7bc 2934 b73d b302 943d 7f03 663c
00000310: 78e7 2dbd 710f e9bc 91e6 c3bd f23d 56be
00000320: 8654 903c 161d d9bc 1541 babc 6409 a3bc
00000330: 3966 06be 43de aebc 85ec 4abd d213 cd3c
00000340: 60e3 89bc e9bc 14be 95cb 0e3e 0277 f13b
00000350: fc22 aabc c745 44bd fafc 1dbe 5c38 9a3d
00000360: 357d a23d a1dc 0cbd db3c 903d f8b2 19bd
00000370: 3070 753b a5de a63d 67ce 5c3d c0a0 d8bd
00000380: abc0 36bc 069a 5fbd 789f 473b 1c44 b8bd
00000390: e4b9 c4bd 3819 173d c71a 24bd dabe b5bd
000003a0: 5900 14be e091 a9bd 5e4c a53d 494d 1cbe
000003b0: c7de 01be 83d7 233e 5693 863c 863e 6d3d
000003c0: 5781 533c ca69 553c 975a 2bbe 3673 5b3d
000003d0: 1242 2abd fd27 0abe 915f 76bd f849 5a3c
000003e0: 0c59 6dbd 7d3d 913c 5fc8 1fbe 153a cabd
000003f0: c7fb d43c 6344 6c3b 1c19 4d3e 5da3 e0bd
-0.06510441 -0.07065522 0.07006234 -0.19020481 -0.038923755 -0.06430384 -0.07827151 0.06867694
0.03980329 -0.043451473 0.16948614 -0.11663646 0.04197728 -0.0681915 -0.042098798 -0.11945809
0.010964533 0.02864442 0.09770143 0.16019483 -0.050906558 0.018987037 -0.15796266 0.16325986
0.15260443 -0.19097199 0.16873814 -0.05947358 0.099417135 0.10909453 -0.20469618 -0.14885107
0.088158585 -0.022809658 -0.15091954 -0.023796637 0.061767753 0.037754435 0.21701685 -0.021925963
-0.042788386 -0.14042632 -0.009930558 0.10576551 0.062410917 0.21398784 -0.006063471 -0.086862974
0.03501 0.04142666 0.004671574 0.022664746 0.0020582369 0.0773996 0.13170233 -0.028410083
-0.023548111 -0.13066179 -0.08743836 -0.24345928 0.07742704 -0.076612666 -0.02257703 0.048057403
0.014547656 -0.007823232 0.08161246 -0.014146324 0.11494913 -0.11180545 -0.03853588 0.018736957
0.030675417 -0.06890387 0.113071494 -0.11304749 -0.039528128 0.13684122 -0.02875592 -0.11447453
0.081139 -0.16390797 -0.028664758 -0.07963398 0.08702552 0.048845243 0.031105006 -0.08769381
0.059851464 0.036091432 -0.0083003035 0.09708206 -0.21484014 0.10861832 0.07157689 0.10411294
-0.06980622 0.07520048 -0.008090875 0.02543038 0.026212461 0.12102464 -0.033894733 -0.110123955
0.009604201 -0.113677554 -0.053977296 -0.16373102 -0.070230626 -0.051145464 0.022037633 -0.053839188
-0.08079992 0.00043721107 -0.07422026 -0.1324795 0.0045053484 -0.1434174 0.13195774 -0.039792098
0.05933667 -0.051079493 -0.17079937 -0.116698824 -0.031128448 0.19927716 -0.12029912 0.06932995
-0.14047979 -0.17095895 0.02690899 -0.01121689 -0.07359876 0.07542497 0.1425708 0.061419316
0.06477803 0.12521333 -0.027387554 -0.0424106 0.091735296 0.035592876 0.022266671 -0.046076186
-0.09096677 0.24350506 0.048399158 0.15148465 -0.16206326 0.011217937 -0.22840318 0.07362401
-0.00577543 -0.21790847 0.05613573 -0.18579598 0.14540121 -0.017506989 -0.0169129 -0.029164618
-0.001516589 0.043442264 -0.020190805 -0.18094106 0.13610488 0.08486048 0.14394866 -0.06818068
-0.21964438 0.07767673 0.08139468 0.14684622 0.016453693 0.045147322 0.06580874 -0.0021625124
-0.04016571 -0.01754727 0.0537068 0.22143117 0.09748103 0.056957483 0.017539397 -0.15739931
-0.052818652 0.03769801 -0.030088363 -0.24320056 0.10300834 0.020994427 0.08122545 0.114444725
-0.028240971 0.08945496 0.07227077 0.0140389195 -0.042457074 -0.028449746 -0.095654614 -0.20922068
0.017618429 -0.026503127 -0.022736112 -0.019901939 -0.13124932 -0.021346217 -0.04954197 0.025033865
-0.016832054 -0.14525189 0.13944848 0.007368923 -0.020768635 -0.047918107 -0.15428534 0.07530281
0.079340376 -0.034390096 0.07042857 -0.037524194 0.0037450902 0.08147935 0.053907778 -0.10577536
-0.011154334 -0.054590248 0.003046004 -0.08997366 -0.09605768 0.036889285 -0.0400646 -0.08874293
-0.14453258 -0.082797766 0.080712065 -0.15263857 -0.12682639 0.1600018 0.016427677 0.057920955
0.012909255 0.01302571 -0.16733776 0.05357667 -0.041566916 -0.13491817 -0.060149733 0.0133233
-0.05794625 0.017729515 -0.1560378 -0.098743595 0.025998963 0.0036051504 0.2002911 -0.10968659

classifier.0.bias f4 [32]
00000000: 8b9f 003e 5cc1 56be 454a a03e 84a3 06bd
00000010: b8bd fcbc f813 6ebe 9218 4b3e 187f 06be
00000020: f5dc 193d 264a a7bd f3a1 633e c5d1 81be
00000030: 3896 c5bc ea9f 673e 60c3 8b3d 66ef 9abd
00000040: 9ea6 1abd bc0b 25be 2141 70be a2a8 823e
00000050: 7d34 f83d 50da 8ebe 03d6 823d ca1f 09be
00000060: eecc 72be 6025 7ebc 860e 91bd 7af4 03be
00000070: 444b 133e ae63 2fbd 3ec7 23be e748 643e
0.12560861 -0.20972198 0.31306663 -0.032870784 -0.030852184 -0.23249805 0.19833592 -0.1313442
0.037564237 -0.081684396 0.22229747 -0.25355354 -0.024119481 0.22619596 0.06824374 -0.07565193
-0.037756555 -0.16117758 -0.23462345 0.25519282 0.12119386 -0.27900934 0.06388476 -0.13391033
-0.23710987 -0.015511841 -0.07082848 -0.12886229 0.1438418 -0.04281967 -0.15993974 0.22293435

classifier.2.weight f4 [1, 32]
00000000: 5501 6a3d 9554 84bd 3833 493e 0671 68bb
00000010: 2655 c43c e7e5 25bd e59b 193e 8e2c 893c
00000020: 419d f83d 6deb 86bd 2e11 313e 6a46 3dbe
00000030: a35f 653c ed99 023e c659 063d 80b8 483d
00000040: 12f6 40bd 79a8 0ebe c905 92be 612e 0b3e
00000050: 6aa9 503d 2cad 80bd 5f41 0c3e 4c55 1fbe
00000060: c0ed d0bd 7f28 debc 14d0 e3bd 31fe e1bd
00000070: ce36 a53d 0199 f03a ed75 dbbd 6dce 423e
0.057130177 -0.06461445 0.19648445 -0.0035467758 0.023966383 -0.040502455 0.15000875 0.016744878
0.12139369 -0.06587873 0.1729171 -0.18483892 0.013999852 0.1275403 0.03280046 0.049004078
-0.04710967 -0.13931455 -0.2852004 0.13591911 0.050942816 -0.0628303 0.13696812 -0.15559882
-0.10201597 -0.02711892 -0.11123672 -0.11034811 0.08067094 0.0018356146 -0.10715852 0.19024058
